app/src/main/ml/plant_disease_model.tflite (tflite, 745464 bytes, 16 tensors)

sequential_2/conv2d/Relu;sequential_2/conv2d/BiasAdd;sequential_2/conv2d/Conv2D;sequential_2/conv2d/BiasAdd/ReadVariableOp f4 [32, 3, 3, 3]
0	0x39ee11df	0.00045408212
1	0x39d2c752	0.00040202826
2	0xb92ee1da	-0.0001667807
3	0x3a24002d	0.000625613
4	0xb9107483	-0.00013776314
5	0xb922b7b1	-0.00015517954
6	0xb9907149	-0.00027550224
7	0xb995e4af	-0.00028589877
8	0xba43f395	-0.0007474956
9	0x3a20de76	0.0006136665
10	0x39c1dab9	0.0003697479
11	0xb85fcb7f	-5.3356864e-05
12	0x3a28f6f3	0.00064454897
13	0xb90843b7	-0.00012995196
14	0xb8e65ffe	-0.000109851346
15	0x398632c4	0.00025596295
16	0x39488679	0.00019123581
17	0xb8346922	-4.3013257e-05
18	0x399be0f6	0.00029731513
19	0x39b6fa50	0.00034900242
20	0xb8e887ce	-0.00011087918
21	0x3a2ed276	0.00066689344
22	0xb9703778	-0.00022908847
23	0xba32e16e	-0.0006823753
24	0x39fa1672	0.0004770044
25	0xb9d800f8	-0.00041199452
26	0xba39c430	-0.0007086424
27	0x38ecd50a	0.000112930386
28	0xb8f3dac5	-0.00011627892
29	0xba1a2d35	-0.000588137
30	0x378f8ffc	1.7113976e-05
31	0x39334fdf	0.00017100525
32	0x39cf4382	0.00039532414
33	0x3a0a39bc	0.00052728853
34	0xb8b26795	-8.506995e-05
35	0x3938354a	0.00017567459
36	0x3a32a3c6	0.0006814565
37	0xba1160e6	-0.000554575
38	0x393db482	0.00018091689
39	0x3980baf9	0.00024553368
40	0xb8e3e5cf	-0.00010867009
41	0x35f14bae	1.7977925e-06
42	0x398354ac	0.00025049353
43	0x393282b6	0.00017024096
44	0xb9ec1a85	-0.00045033186
45	0x3a34df41	0.00068997225
46	0xb90376a8	-0.00012537336
47	0xba0adc3c	-0.00052970997
48	0xb9e20579	-0.00043110157
49	0xba47e8cc	-0.0007625937
50	0xba262f8e	-0.00063394837
51	0x3a35830c	0.00069241296
52	0xb9981809	-0.00029009607
53	0x391505e8	0.00014211948
54	0xb9ff66bb	-0.0004871393
55	0x397828c9	0.00023666317
56	0x3a13065c	0.00056085526
57	0x39245b2e	0.00015674226
58	0xb9a6066d	-0.00031666775
59	0x3987bf3f	0.00025891696
60	0x392c4d5a	0.00016432014
61	0xb9f69262	-0.0004702984
62	0x3a15393b	0.0005692427
63	0xb97acee8	-0.00023918936
64	0xb7cc3b42	-2.434629e-05
65	0x39b2bf80	0.00034093484
66	0x39d27479	0.000401411
67	0x39b20f55	0.0003396223
68	0x3a184b6f	0.00058095803
69	0x3956c424	0.00020481698
70	0xba017ff2	-0.0004940025
71	0x3a1b1853	0.00059164054
72	0xb975f3cb	-0.0002345584
73	0x39cbaf56	0.00038849813
74	0xb9dc6edd	-0.0004204427
75	0xba2050e5	-0.000611557
76	0x394b0d2b	0.00019364494
77	0x39a6654a	0.00031737454
78	0xb9bd4392	-0.00036099233
79	0x39671ee5	0.00022041386
80	0x39365453	0.00017388286
81	0x39ae4628	0.00033240137
82	0xb8ce8a59	-9.848615e-05
83	0x39e20f2e	0.0004311739
84	0xba238c5a	-0.00062388706
85	0xba2710d1	-0.000637305
86	0xba3f851a	-0.00073059055
87	0xb9b5fb21	-0.00034710116
88	0xba2768f6	-0.0006386185
89	0x3928c650	0.00016095606
90	0xb889dc71	-6.5737295e-05
91	0xb983831e	-0.00025083957
92	0x396aab91	0.00022379892
93	0xba693850	-0.0008896636
94	0xba19a370	-0.0005860841
95	0xba42962b	-0.00074228895
96	0xba144626	-0.0005656205
97	0xba0b72cc	-0.0005319535
98	0x3818efb2	3.6462858e-05
99	0x3a3d141a	0.0007212773
100	0x39b7a2b5	0.00035025706
101	0x3a36854c	0.0006962612
102	0xb8f7e0bd	-0.000118197386
103	0x393be7ee	0.0001792011
104	0x398b0fa0	0.00026523788
105	0xb9946667	-0.00028305055
106	0x3918a530	0.00014557387
107	0x3a50b463	0.000796145
108	0xb7142b08	-8.831506e-06
109	0x39c4fae4	0.0003757096
110	0xb864b42b	-5.452723e-05
111	0x38d572e4	0.000101780315
112	0xb81b9a86	-3.709879e-05
113	0xba3b6963	-0.0007149188
114	0x39351826	0.00017270501
115	0xb9f492c1	-0.00046648647
116	0x38aa9427	8.133827e-05
117	0xb9b3d63b	-0.00034301155
118	0x399d0f9c	0.00029957003
119	0xba57744c	-0.00082189287
120	0x39633c64	0.00021670904
121	0xb82c3cfd	-4.1064795e-05
122	0xb91195fb	-0.0001388415
123	0x3980cfa6	0.00024568773
124	0x38905520	6.882311e-05
125	0xba1dad08	-0.00060148584
126	0x3920b95a	0.00015327838
127	0x392d6c9b	0.00016539024
128	0xba0a0445	-0.00052649184
129	0x39b6bd5f	0.00034854838
130	0x38eb257b	0.000112126545
131	0xba49ba37	-0.00076952897
132	0xb959ba40	-0.00020764116
133	0xb9f40347	-0.00046541748
134	0x38e22b7f	0.000107846216
135	0xb9ce6b06	-0.0003937112
136	0x39f6dd66	0.0004708573
137	0xba09458e	-0.00052365
138	0x39eef51f	0.00045577527
139	0x396370f8	0.00021690491
140	0x39e1d83e	0.00043076457
141	0x3a37e270	0.0007014638
142	0x39d34d45	0.00040302626
143	0xb799888b	-1.8302604e-05
144	0xb9ecc344	-0.00045158912
145	0x394f0d98	0.00019746122
146	0xba04c217	-0.0005064322
147	0x39bd7faa	0.00036144006
148	0x38c700c0	9.489199e-05
149	0xb9940636	-0.00028233387
150	0xb7291a72	-1.0079342e-05
151	0x38cb05a2	9.6808435e-05
152	0xb9cf8288	-0.0003957937
153	0xb8917196	-6.935296e-05
154	0xb9594260	-0.0002071946
155	0xba2779b3	-0.0006388679
156	0xb9a36f9e	-0.00031172944
157	0xb9a6ef28	-0.00031840173
158	0xb9a26477	-0.000309739
159	0x3962cc76	0.00021629207
160	0x3a100bd3	0.0005494926
161	0xb84339b7	-4.6545374e-05
162	0xb9c7b849	-0.0003809354
163	0x39c45f3e	0.00037454994
164	0x3a0aeca4	0.00052995444
165	0xb926e655	-0.00015916799
166	0xb8f2b00c	-0.000115722505
167	0xb64260a4	-2.8964505e-06
168	0xb9fef883	-0.0004863181
169	0x39e4c206	0.00043632108
170	0x38f3342f	0.00011596863
171	0xba675136	-0.0008824052
172	0xba4e533d	-0.000787068
173	0xba4e0f67	-0.00078605715
174	0x39ab803e	0.0003271121
175	0x39bd6300	0.0003612265
176	0x3948958a	0.00019129194
177	0xb989fa72	-0.00026317273
178	0x37dc9464	2.6295143e-05
179	0x3a130d64	0.00056096003
180	0xb8e1ec87	-0.00010772893
181	0xb9cad6dc	-0.00038688525
182	0xba030410	-0.0004997859
183	0xb904535c	-0.00012619555
184	0xba364a0e	-0.0006953784
185	0xb805afa6	-3.1873256e-05
186	0x398c9a23	0.00026817722
187	0xb9bf6526	-0.0003650572
188	0x39f110a5	0.00045979503
189	0x38b2008f	8.4878055e-05
190	0x388eee5b	6.815485e-05
191	0x3a31c8c8	0.0006781933
192	0xba25556c	-0.00063069793
193	0x37f1d23c	2.8827337e-05
194	0xb99c8ccc	-0.0002985954
195	0xb9bb5a59	-0.00035734734
196	0xba021be0	-0.000496326
197	0x380e46dc	3.392143e-05
198	0xb907a7a5	-0.00012937056
199	0xb9321051	-0.00016981481
200	0xb97bca41	-0.00024012571
201	0xb9c8cbb3	-0.0003829874
202	0x39856ad7	0.0002544734
203	0xb892e20d	-7.003928e-05
204	0xba1dc73a	-0.0006018762
205	0xb87a2eab	-5.9648108e-05
206	0xb663c9e9	-3.3943163e-06
207	0x385dc6a1	5.2875494e-05
208	0xb9580cda	-0.00020604153
209	0x390f94d8	0.00013692991
210	0xb9db562d	-0.0004183514
211	0xb89c1fdd	-7.444595e-05
212	0x3a0a8fa3	0.0005285686
213	0x3a04ad6f	0.0005061244
214	0xb9593147	-0.0002071309
215	0x3a07600a	0.0005164152
216	0x39c97870	0.0003842744
217	0x39d26f3c	0.00040137197
218	0x398fc941	0.0002742503
219	0xb90504a1	-0.00012685593
220	0xb93ca60f	-0.00017990939
221	0x3a1a88de	0.00058950286
222	0xb88a1c7a	-6.585657e-05
223	0xb94b047f	-0.00019361264
224	0xb837a8c5	-4.378778e-05
225	0x3a271831	0.0006374149
226	0x3a0155f3	0.0004933767
227	0x380588af	3.1836968e-05
228	0x39d683d7	0.0004091549
229	0xb754a4e5	-1.2674577e-05
230	0xb94cc4f5	-0.00019528328
231	0xba03d2c2	-0.0005028659
232	0xba387b05	-0.00070373743
233	0xba7bd3b2	-0.0009606435
234	0xb9835a48	-0.00025053532
235	0x3a2aeeb7	0.00065205566
236	0xb900463e	-0.00012233199
237	0x39c3864c	0.00037293357
238	0xba015774	-0.0004933991
239	0xb9b83318	-0.00035133283
240	0xb9616b8c	-0.00021497736
241	0xba144f49	-0.00056575664
242	0xb9c014a7	-0.0003663648
243	0x38b9921a	8.848701e-05
244	0xb9424d40	-0.0001853006
245	0x399b04f4	0.00029567594
246	0xba32be5c	-0.0006818527
247	0x3a2497e8	0.00062787393
248	0x39e29042	0.0004321356
249	0xb8cc75f2	-9.749447e-05
250	0xb932d978	-0.00017056416
251	0x3a0bdbc2	0.00053351757
252	0xb9c87d47	-0.00038240312
253	0x39ea19e9	0.00044651263
254	0x37aa7331	2.031922e-05
255	0xb93547a9	-0.000172882

sequential_2/conv2d/BiasAdd/ReadVariableOp f4 [32]
0	0xbca33a1a	-0.019925166
1	0x3cf34b92	0.02969912
2	0xbd8a1caf	-0.06743752
3	0x3ccc0bdf	0.024908004
4	0x3d253f18	0.040343374
5	0xbd279843	-0.040916692
6	0x3c8a1096	0.016853612
7	0x3d234af8	0.039866418
8	0x3ba28da4	0.0049607325
9	0xbe0050fb	-0.12530892
10	0xbd26350e	-0.04057794
11	0x3bbb3f8c	0.0057143625
12	0xbc9a58af	-0.018841116
13	0xbd694b40	-0.05695653
14	0xbd8c7782	-0.06858732
15	0x3d3c06d3	0.045904946
16	0xbd944e8c	-0.07241544
17	0x3d6c4a80	0.057688236
18	0x3d65b257	0.05607828
19	0xbd57111d	-0.052506555
20	0x3c694c66	0.014239406
21	0x3cca0047	0.024658335
22	0x3c1cb5d6	0.009564837
23	0x3d92ef69	0.0717457
24	0x3d91b185	0.07113937
25	0xbcbf3981	-0.02334285
26	0x3bf6dc10	0.0075335577
27	0xbc489f40	-0.012244999
28	0xbd568267	-0.052370455
29	0x3c91121b	0.017708829
30	0xbbe80c77	-0.007081564
31	0xbbdd6e4b	-0.0067575327

sequential_2/conv2d_1/BiasAdd/ReadVariableOp f4 [64]
0	0xbd94c510	-0.07264149
1	0x3c55059f	0.013001828
2	0x3d29e3c7	0.04147699
3	0xbd718a70	-0.058969915
4	0xbcb6642b	-0.02226456
5	0xbcad84ef	-0.021181552
6	0x3c2eab19	0.01066091
7	0xbd5c7483	-0.05382205
8	0xbd48d5c3	-0.049031984
9	0xbd8f1722	-0.06986834
10	0xbd953307	-0.07285123
11	0xbd1aecb5	-0.037823398
12	0x3d9b562c	0.07584795
13	0xbc048bee	-0.008090002
14	0xbcbf86da	-0.023379732
15	0xbd6d90b3	-0.057999324
16	0x3d3950bb	0.045243006
17	0x3d8dc009	0.069213934
18	0xbdd4b6de	-0.10386442
19	0xbdc70352	-0.0971743
20	0xbd98397b	-0.074328385
21	0xbd33d61a	-0.043905355
22	0xbd3e919f	-0.046525594
23	0xbcf4b283	-0.029870277
24	0x3cdad83f	0.026714442
25	0xbd5d29ea	-0.05399505
26	0xbd847b9f	-0.06468891
27	0xbd7a3d15	-0.06109341
28	0xbd44fb72	-0.04809136
29	0x3d233708	0.039847404
30	0x3cf3c002	0.029754642
31	0xbd13b116	-0.036057554
32	0xbbd10265	-0.0063784593
33	0x3dc06bc3	0.09395554
34	0xbd1b5649	-0.037924085
35	0xbca19824	-0.019725867
36	0x3d6d83ea	0.05798713
37	0xbd75b119	-0.059983347
38	0x3ca62c15	0.020284692
39	0xbd5ca1c2	-0.0538652
40	0xbd341c62	-0.04397238
41	0xbd2b1b88	-0.041774303
42	0xbcfce97f	-0.030873058
43	0xbd9b0b95	-0.075705685
44	0x3dd4ff37	0.10400241
45	0x3ba6e7d5	0.0050935545
46	0x3badd8a4	0.0053053666
47	0xbdc48f07	-0.09597593
48	0x3dac524d	0.08414135
49	0xbd3ab894	-0.045586184
50	0xbc86b25e	-0.016442474
51	0x3d74b5ba	0.05974362
52	0x3cd11a27	0.025525166
53	0x3db0fb76	0.08641712
54	0xbcb1b1e6	-0.021691274
55	0x3902cfee	0.00012475226
56	0xbd8be1dc	-0.06830189
57	0x3d133d4a	0.03594712
58	0x3c023034	0.007946063
59	0xbaf6bb18	-0.0018824069
60	0xbc8bcc30	-0.017065138
61	0xbcd83d70	-0.026396483
62	0xbd411478	-0.04713866
63	0xbd144468	-0.03619805

sequential_2/conv2d_2/BiasAdd/ReadVariableOp f4 [64]
0	0xbdbf51e9	-0.09341795
1	0xbb0d70b9	-0.002158208
2	0x3ca5d858	0.020244762
3	0x3c847216	0.016167682
4	0xb9df0018	-0.00042533944
5	0xbcaa3ea0	-0.020781815
6	0x3d125656	0.035726868
7	0xbc9966c1	-0.018725755
8	0x3b9688ed	0.0045939595
9	0xbcbde3a1	-0.023179831
10	0xbd78b2df	-0.06071746
11	0xbc849792	-0.016185556
12	0xbe40dba8	-0.18833792
13	0x3a2d1c68	0.0006603659
14	0xbda61dbf	-0.08111142
15	0xbdd1835c	-0.10230133
16	0xbcc3f784	-0.023921736
17	0x3d83c408	0.06433874
18	0x3b9fb97f	0.004874408
19	0x3cb89a9b	0.02253466
20	0xbdc3b15a	-0.095553115
21	0xbc36647e	-0.011132358
22	0x3db4c698	0.08826941
23	0x3d8926f9	0.066968866
24	0x3b7fedf4	0.0039051743
25	0xbdd5c9d2	-0.10438885
26	0x3ba31abb	0.0049775518
27	0xbcf0257c	-0.029314749
28	0xbbe8116e	-0.007082156
29	0xbd9f72ba	-0.07785554
30	0xbe088a1b	-0.13333933
31	0xbd03603c	-0.032074198
32	0xbcd88f51	-0.026435526
33	0xbd052d57	-0.032513943
34	0xbd263621	-0.040578965
35	0xbdaa5783	-0.08317473
36	0x3c94dcb4	0.018171646
37	0xbcb36a71	-0.021901341
38	0xbce375a2	-0.027766053
39	0x3d1517a1	0.036399487
40	0x3cae5c5b	0.021284273
41	0x3d2c7b22	0.042109616
42	0x3b5cbfae	0.0033683586
43	0x3cb286c9	0.021792786
44	0xbd1fe251	-0.03903419
45	0xbd691bf2	-0.056911416
46	0xbbcf5d1d	-0.0063282386
47	0xbbfb0414	-0.0076603983
48	0xbd2dc8ce	-0.04242783
49	0xbd31c159	-0.04339728
50	0x3d1227e1	0.035682563
51	0x3d1d6527	0.038426545
52	0x3c959e55	0.018263975
53	0xbc7a981b	-0.015295054
54	0x3c770ed5	0.01507922
55	0xbe10a0f1	-0.14123894
56	0xbd624db4	-0.055249885
57	0xbd6daea3	-0.058027875
58	0x3c46c72e	0.012132449
59	0xbcd3f5f2	-0.025874112
60	0x3cf13765	0.02944536
61	0xbc23b1d8	-0.009991132
62	0x3c35182e	0.011053128
63	0xbd1cf61b	-0.038320642

sequential_2/conv2d_3/BiasAdd/ReadVariableOp f4 [64]
0	0xbe207532	-0.15669706
1	0xbdecdb35	-0.11565248
2	0xbcb4ac0e	-0.022054698
3	0x3d8fb434	0.07016793
4	0xb9ae7193	-0.00033272486
5	0xbd89fcb5	-0.06737653
6	0x39f985c4	0.00047592644
7	0x3e012f50	0.12615705
8	0x3c8e0c90	0.017339975
9	0x3b9bd500	0.004755616
10	0xbe1d5b24	-0.15366799
11	0xbc68b9a8	-0.01420442
12	0xbd830d46	-0.06399016
13	0xbdba6cac	-0.09102759
14	0xbe070e2d	-0.13189001
15	0xbd438a3f	-0.047739264
16	0xbca8297d	-0.020527596
17	0xbe26e9fb	-0.16300194
18	0xbd2ad8cd	-0.041710664
19	0xbd833c2e	-0.06407963
20	0xbc7741c8	-0.015091367
21	0xbcaa5eeb	-0.020797214
22	0x3dda267c	0.106518716
23	0xbe4ea660	-0.20180655
24	0xbd463c12	-0.04839713
25	0x3d0a683d	0.033790816
26	0xbd833b6c	-0.06407818
27	0x3d1301fa	0.035890557
28	0xbdf7a4b8	-0.120919645
29	0x3d6b6e9e	0.05747854
30	0x3cf5841b	0.02997022
31	0xba9cedb9	-0.0011972702
32	0x3d520fc2	0.05128456
33	0x3de5f4a4	0.11228302
34	0x3d9606ea	0.073255375
35	0x3c2e43b3	0.010636258
36	0x3b9c756d	0.0047747404
37	0xbd917265	-0.07101897
38	0xbe2ae4e5	-0.16688879
39	0xbe406c60	-0.18791342
40	0xbe2968b6	-0.1654385
41	0xbcfe9896	-0.031078618
42	0xbd257446	-0.04039409
43	0x3da1ff87	0.07910066
44	0x3c6d80ee	0.014496071
45	0xbdfeaae1	-0.12434936
46	0x3d66e194	0.05636747
47	0xbd5dd359	-0.054156635
48	0xbd464571	-0.04840607
49	0x3d19a3f6	0.03750988
50	0xbe5be44e	-0.2147381
51	0xbcbc4e47	-0.022986544
52	0x3e174a56	0.1477445
53	0xbd83a9fc	-0.06428906
54	0xbdb52df1	-0.08846653
55	0x3de5d999	0.11223144
56	0xbe0b71f9	-0.13617696
57	0xbdb7fa19	-0.08983249
58	0x3d93947f	0.07206058
59	0x3be3045c	0.00692801
60	0xbcd527ce	-0.026019957
61	0xbe217e20	-0.15770769
62	0xbcba3f50	-0.022735268
63	0xbe243e08	-0.16039288

sequential_2/conv2d_4/BiasAdd/ReadVariableOp f4 [64]
0	0xbc628449	-0.013825485
1	0xbd01df34	-0.031707004
2	0xbd78fc0e	-0.060787253
3	0xbd011767	-0.03151646
4	0xbc4318ae	-0.01190774
5	0xbd183f53	-0.037169766
6	0xbd86c810	-0.06581128
7	0xbd088501	-0.033329967
8	0xbd2ba72d	-0.041907478
9	0xbca25e0c	-0.019820236
10	0x3d84b2c2	0.06479408
11	0xbd1a6da4	-0.037702218
12	0xbc2b0e63	-0.010440442
13	0x3c87db1d	0.016583974
14	0xbe2d60ca	-0.16931453
15	0xbd2c4cc9	-0.042065416
16	0xbe2e4007	-0.17016612
17	0x3d601bd3	0.054714035
18	0xbd9d6651	-0.07685531
19	0x3eb7fc6d	0.35934773
20	0xbca19e81	-0.0197289
21	0xbd27dc7b	-0.04098175
22	0xbe351af8	-0.17686069
23	0x3c66789a	0.01406684
24	0xbc8d46b8	-0.017245635
25	0xbd72dfca	-0.059295453
26	0x3e083b91	0.13303973
27	0x3d89dd08	0.067316115
28	0xbd21ccbc	-0.03950189
29	0xbe06ad1a	-0.1315197
30	0xbd70eb8f	-0.058818396
31	0xbe0941d5	-0.13404019
32	0x3e01dfa0	0.12682962
33	0x3d9d4b72	0.07680406
34	0xbd7cb215	-0.06169327
35	0x3e013991	0.12619616
36	0xbcf47330	-0.029840082
37	0xbcd09380	-0.025460958
38	0x3cd7400f	0.026275663
39	0x3d2626bd	0.040564287
40	0xbe324c45	-0.17411907
41	0xbcf66341	-0.030076625
42	0x3d4179b0	0.04723519
43	0xbe061dc0	-0.13097286
44	0xbd41d078	-0.047317952
45	0xbd2f7c4b	-0.042843144
46	0x3e477782	0.19479182
47	0xbd4016fa	-0.046896912
48	0xbd03eb01	-0.03220654
49	0xbd0396d5	-0.032126267
50	0x3e0ae579	0.135641
51	0xbcb8f3b4	-0.022577144
52	0xbde40230	-0.1113323
53	0x3cf4ad3f	0.029867766
54	0x3c9ec251	0.019379767
55	0xbcaac11b	-0.020844033
56	0xbc4d0c19	-0.012515091
57	0xbe060a62	-0.13089898
58	0x3e3c98e7	0.18417703
59	0x3d52cfd1	0.05146772
60	0xbe5a5dc5	-0.21324833
61	0x3e1c897c	0.15286821
62	0xbddeee7c	-0.10885331
63	0xbd83c16d	-0.064333774

sequential_2/conv2d_5/BiasAdd/ReadVariableOp f4 [64]
0	0x3ccd9586	0.025095712
1	0xbdc17e89	-0.09447963
2	0x3b7334d0	0.0037110336
3	0xbc8170d4	-0.015800871
4	0xbd06e542	-0.03293348
5	0xbc972a78	-0.018452868
6	0x3dee0f62	0.11624028
7	0x3de20812	0.110366955
8	0xbd35affb	-0.04435728
9	0x3b671163	0.0035258166
10	0x3e71d189	0.23615088
11	0xbe2a4ea0	-0.16631556
12	0xbe0e24e3	-0.13881259
13	0xbdb180d7	-0.086671524
14	0xbe8868bb	-0.26642403
15	0x3e25c5a6	0.16188678
16	0xbe325ea9	-0.17418922
17	0x3e84eb0e	0.25960582
18	0xbe38bf65	-0.18041761
19	0x3ebc3e2d	0.36766186
20	0xbca65208	-0.020302787
21	0xbc2fd64b	-0.010732244
22	0xbe39b90b	-0.18136995
23	0xbd0f4ad9	-0.03498349
24	0x3d07f05b	0.033188205
25	0x3dc7ce10	0.097561
26	0x3e1dfd8c	0.15428752
27	0xbd09b0da	-0.033615924
28	0x3e4fd08a	0.20294395
29	0x3d7beca0	0.06150496
30	0xbc825079	-0.015907513
31	0x3a8d68c8	0.0010788674
32	0x3e10d910	0.14145303
33	0xbd260139	-0.04052851
34	0xbe59fa9f	-0.2128701
35	0x3e4b1072	0.19830492
36	0xbc7eeac7	-0.015558905
37	0xbd565624	-0.052328244
38	0x3e879102	0.2647782
39	0xbcd4140e	-0.02588847
40	0xbc720226	-0.01477102
41	0xbda98d6a	-0.08278926
42	0x3e0b8274	0.13623983
43	0xbc979466	-0.01850338
44	0x3c04a6e4	0.00809643
45	0x3e81169d	0.25212565
46	0x3da815f5	0.08207313
47	0x3dcdf6ce	0.1005684
48	0x3bc5e8f2	0.006039732
49	0x3d0be2be	0.034151785
50	0x3dfa4c21	0.12221552
51	0xbe2240b8	-0.15845
52	0xbd86fd35	-0.06591264
53	0xbcbebee1	-0.023284378
54	0xbcc0e434	-0.023546316
55	0xbd95c938	-0.0731377
56	0x3e9259cb	0.28584132
57	0xbddaa745	-0.106764354
58	0xbddc2588	-0.10749346
59	0xbcb55d92	-0.022139344
60	0xbd39b3fa	-0.045337655
61	0x3da427cb	0.080154024
62	0xbce8834b	-0.028382918
63	0xbc6c552e	-0.014424605

sequential_2/conv2d_1/Conv2D f4 [64, 3, 3, 32]
0	0x3d4bce8d	0.04975753
1	0xbc671b6c	-0.014105659
2	0xbdad1dfa	-0.08452983
3	0x3e41bf38	0.189206
4	0x3ccbdfbb	0.024886956
5	0x3d88cfda	0.066802695
6	0x3d90ec77	0.07076352
7	0x3d722c5c	0.059124336
8	0x3e03babb	0.12864201
9	0xbcff45f8	-0.031161293
10	0x3e1140ea	0.14184919
11	0x3d186fd7	0.037216034
12	0xbd0d6d8a	-0.034528293
13	0xbd786e31	-0.06065196
14	0xbd806f8c	-0.06271276
15	0x3c6641f4	0.01405381
16	0xbc248c3d	-0.010043201
17	0x3c1d237f	0.009590982
18	0x3da9c752	0.082899705
19	0x3c6898bb	0.01419657
20	0xbcb61c7a	-0.022230376
21	0x3d146086	0.036224864
22	0x3d7312ec	0.059344217
23	0x3c5ae526	0.013360297
24	0x3e162ba1	0.1466508
25	0xbc371b8b	-0.011176
26	0xbcacf378	-0.021112189
27	0xbbf53df9	-0.0074841944
28	0x3cfd97e8	0.030956224
29	0xbcf6e5b3	-0.030138826
30	0x3d023dbe	0.031797163
31	0xbc9599ed	-0.018261874
32	0xbdad537e	-0.084631905
33	0x3dfd7b09	0.12376983
34	0xbd6026ab	-0.054724377
35	0x3e910f97	0.28332207
36	0x3de16ddb	0.110072814
37	0xbd211fb9	-0.039336894
38	0x3e018c80	0.12651253
39	0xba90e6de	-0.0011055132
40	0x3e032a3e	0.12809083
41	0xbd22cc7a	-0.039745785
42	0x3df9dbb2	0.12200107
43	0x3d05f2d5	0.032702286
44	0x3d118122	0.03552354
45	0x3c80aed2	0.01570836
46	0x3cb8d39a	0.022561837
47	0x3e119fac	0.14221066
48	0xbd05ac81	-0.032635216
49	0x3dc95a73	0.09831705
50	0xbb55ded6	-0.0032634041
51	0x3d1f473d	0.038886297
52	0x3d3a3e77	0.045469727
53	0xbb7d70f7	-0.0038672069
54	0x3d561fcc	0.052276418
55	0xbb4a326e	-0.0030852812
56	0x3dcbd327	0.099523835
57	0x3da41024	0.08010891
58	0x3d8aa383	0.06769469
59	0x3d17e3ab	0.037082355
60	0x3dced59a	0.10099335
61	0x3d3a8820	0.045539975
62	0x3ccab705	0.024745474
63	0xbca8d008	-0.02060701
64	0xbd7c98c1	-0.061669115
65	0x3c7bb9c7	0.015364117
66	0xbd82992c	-0.063768715
67	0x3e5411cf	0.20709918
68	0x3da7a1f0	0.08185184
69	0x3d20c405	0.03924944
70	0x3d2bdc21	0.04195798
71	0x3de620cb	0.112367235
72	0x3ca93f9f	0.02066022
73	0xbc722d97	-0.014781377
74	0x3d19cc74	0.037548497
75	0x3c17cf9f	0.009265809
76	0x3d892f77	0.06698506
77	0x3d8a3473	0.06748285
78	0xbd71449a	-0.058903314
79	0x3e2c4878	0.1682452
80	0xbdb14d04	-0.08657268
81	0x3d7e796e	0.062127523
82	0x3e1f6313	0.15565138
83	0xbdaebea5	-0.08532456
84	0xbd154541	-0.036443
85	0x3d45798e	0.048211627
86	0x3d21d9df	0.03951442
87	0xbd837e5b	-0.06420585
88	0x3da87a02	0.08226396
89	0x3bce4062	0.006294296
90	0x3e03b807	0.1286317
91	0x3d8c95e0	0.06864524
92	0x3d933ec0	0.07189703
93	0x3d83e715	0.0644056
94	0x3bd58471	0.0065160324
95	0x3d63f8af	0.055657085
96	0x3cc92287	0.024552597
97	0x3da47982	0.08030988
98	0x3c717d8a	0.0147394035
99	0x3e70fbc3	0.2353354
100	0xbd109fed	-0.035308767
101	0xbc941244	-0.018075116
102	0xbc633407	-0.013867385
103	0x3d441b95	0.047877867
104	0x3e65dbd3	0.22447138
105	0xbe3ad544	-0.18245417
106	0x3d932655	0.07185046
107	0x3d488e42	0.048963793
108	0xbd111f61	-0.035430316
109	0xbdbdaea1	-0.092618234
110	0x3c5fd829	0.013662376
111	0x3e0482cc	0.1294052
112	0xbd77208f	-0.060333785
113	0xbc1ea880	-0.009683728
114	0xbd2d7a2b	-0.042352837
115	0xbcc14932	-0.023594473
116	0x3bc0ac94	0.005879948
117	0xbc844169	-0.016144471
118	0x3db7abe5	0.08968333
119	0xbd6abbc2	-0.057307966
120	0x3db5611d	0.088564135
121	0xbc806500	-0.01567316
122	0xbc5cbbd2	-0.013472514
123	0x3c072f10	0.008250967
124	0x3e07084e	0.13186762
125	0x3d858766	0.06519966
126	0xbba67eca	-0.0050810324
127	0x3c6fa58f	0.014626875
128	0xbd923299	-0.07138557
129	0x3c90aacd	0.01765957
130	0xbd096d57	-0.03355154
131	0x3e359245	0.17731579
132	0xbd4de5fe	-0.050268166
133	0xbdb6fa7f	-0.08934497
134	0x3d572675	0.05252691
135	0x3dec4c18	0.11537951
136	0x3d8ec84a	0.06971796
137	0xbd4010f0	-0.046891153
138	0xbcf1f96b	-0.029537877
139	0x3e163f8d	0.1467268
140	0x3be89119	0.007097375
141	0xbd4b952c	-0.04970281
142	0xbd06b3f8	-0.032886475
143	0x3e69969b	0.22811358
144	0xbda405ed	-0.08008943
145	0xbcfec4ce	-0.031099703
146	0x3cae3330	0.021264642
147	0xbd7e3491	-0.06206185
148	0xbb91f93c	-0.00445476
149	0x3d6201d8	0.05517754
150	0x3e4785a0	0.19484568
151	0x3cd511c2	0.026009444
152	0xbc558ca4	-0.01303402
153	0xbd1359a7	-0.03597417
154	0x3dfba237	0.122867994
155	0x3d03d975	0.032189805
156	0x3cf36ebc	0.029715888
157	0x3e0e30b2	0.13885763
158	0xbc636a31	-0.0138802985
159	0x3c6beea4	0.014400158
160	0xbdb7bf97	-0.0897209
161	0x3d9dcf12	0.07705511
162	0x3c9c9fca	0.019119162
163	0x3e419e36	0.18908009
164	0xbdc47532	-0.09592666
165	0x3da79f77	0.081847124
166	0x3d2257a0	0.039634347
167	0xbcee125e	-0.029061493
168	0xbd5abb7d	-0.05340146
169	0x3b1786bd	0.0023121082
170	0x3d75d5bf	0.060018297
171	0x3d76cbd3	0.060252976
172	0x3da2959c	0.07938692
173	0xbb4908b6	-0.0030675358
174	0x3d7272f4	0.05919166
175	0x3dc4877f	0.09596156
176	0xbdc5b6f4	-0.09654036
177	0x3dc92c4e	0.098229036
178	0x3d949e3d	0.07256744
179	0x3d15befa	0.036559083
180	0x3baf4443	0.0053487136
181	0xbb62f2e2	-0.0034629633
182	0x3d0fbe8f	0.03509384
183	0xbcb57d9c	-0.022154622
184	0x3ba0a2f6	0.004902239
185	0x3d98241a	0.07428761
186	0x3d810ee8	0.06301671
187	0x3c882835	0.016620735
188	0x3e0c2b44	0.1368838
189	0x3d558f82	0.052138813
190	0xbe1a25f8	-0.15053546
191	0x3e1c811e	0.1528363
192	0xbc453ddb	-0.012038673
193	0xbce36691	-0.027758868
194	0xbba41710	-0.005007632
195	0x3dd86713	0.10566535
196	0x3df3fcaa	0.11913426
197	0xbcde7621	-0.027155938
198	0x3d128be3	0.035777938
199	0xbccb1fa3	-0.024795359
200	0x3df9a803	0.12190249
201	0xbba7bc5c	-0.0051188897
202	0x3d2e13b9	0.042499278
203	0x3e2d2c7c	0.169115
204	0x3dd4033b	0.10352179
205	0x3c2d48b4	0.010576416
206	0xbc51d97c	-0.0128082
207	0x3d8c3c9c	0.06847498
208	0x3d85b3a9	0.06528408
209	0x3cb0ea35	0.021596054
210	0x3d03df8c	0.032195613
211	0xbce9c05f	-0.028534112
212	0x3d80f996	0.06297605
213	0x3cb9a846	0.022663247
214	0xbdc256fd	-0.09489248
215	0xbd94f040	-0.072723866
216	0x3c765509	0.015034922
217	0x3dc313ca	0.09525259
218	0x3dab513a	0.08365102
219	0x3cdd8f77	0.027045948
220	0x3dccb8d1	0.099961884
221	0xbcb4b1ef	-0.022057502
222	0x3d0f8eea	0.035048403
223	0x3e12b991	0.143286
224	0x3d2ad30d	0.04170518
225	0x3cae4db5	0.021277288
226	0x3c55cf9d	0.013049987
227	0x3e495719	0.19662131
228	0x3d071e87	0.032988098
229	0xbd7e924a	-0.06215123
230	0x3dafd62b	0.08585771
231	0x3dc06123	0.09393527
232	0x3d048dca	0.032361783
233	0xbba1251a	-0.004917753
234	0x3dde3603	0.10850146
235	0x3ca232dc	0.019799642
236	0xbd134e0a	-0.035963096
237	0xbbfcf765	-0.0077199214
238	0x3b2a8c1d	0.0026023455
239	0x3e21dcdb	0.15806906
240	0x3d791e73	0.060820054
241	0x3d7f78b6	0.06237098
242	0xbc9f03d5	-0.019411007
243	0x393c21c3	0.00017941654
244	0x3c442eb9	0.01197403
245	0xbd0e810c	-0.034791037
246	0xbdc31f21	-0.09527422
247	0x3c9d3787	0.019191517
248	0xbc811620	-0.01575762
249	0x3d93b301	0.07211877
250	0x3d910b41	0.07082225
251	0x3d4ddec0	0.05026126
252	0x3da10360	0.07861972
253	0xbcb1a3af	-0.021684496
254	0xbe59a02c	-0.21252507
255	0x3de6525b	0.11246177

sequential_2/conv2d_2/Conv2D f4 [64, 3, 3, 64]
0	0x3e044feb	0.12921111
1	0x3d80d0db	0.06289836
2	0x3e2d693a	0.16934672
3	0x3dcd6d96	0.100306675
4	0x3d68ee64	0.056867972
5	0xbd8c8624	-0.06861523
6	0x3cfb6cfe	0.03069162
7	0x3d3451bf	0.04402327
8	0xbd80d23f	-0.06290101
9	0x3e15c739	0.14626779
10	0x3db596a2	0.088666216
11	0x3d117e96	0.035521112
12	0x3d4e7f4f	0.05041438
13	0xbcb87fe2	-0.022521917
14	0x3cefb16a	0.029259402
15	0xbd804fd6	-0.062652275
16	0xbdad3371	-0.08457077
17	0x3c931066	0.017952155
18	0x3d2d36ca	0.04228858
19	0x3b773eae	0.003772657
20	0x3c8898a0	0.01667434
21	0xbdb9e26a	-0.09076388
22	0x3cc704d1	0.024294289
23	0xbce67654	-0.028132595
24	0xbde6e3e0	-0.112739325
25	0xbd2493ce	-0.04018002
26	0xbcc122eb	-0.02357622
27	0x3e3cfc8d	0.18455715
28	0x3dfe2e2b	0.124111496
29	0x3d1ba3cf	0.037998017
30	0x3cb32b45	0.021871218
31	0xbdf29b8f	-0.11846077
32	0x3df8430f	0.121221654
33	0xbb0e8ea3	-0.0021752499
34	0x3d54c898	0.051949114
35	0xbdee8d2f	-0.116480224
36	0x3e44fa7f	0.19236182
37	0x3da13bee	0.07872759
38	0xbe11e212	-0.14246395
39	0x3c6bef55	0.014400323
40	0xbd8a2e7b	-0.06747147
41	0x3cca28c5	0.024677644
42	0x3d1e7843	0.03868891
43	0x3d2482be	0.040163748
44	0xbc347488	-0.011014111
45	0x3c73a456	0.014870724
46	0x3ce5dfd5	0.028060833
47	0x3e651e33	0.22374801
48	0xbe3aecd8	-0.18254411
49	0x3d29279d	0.041297544
50	0xbc133134	-0.008983899
51	0x3965ca50	0.00021914509
52	0x3e0fa12b	0.14026324
53	0xbd22a30c	-0.039706275
54	0x3d513d49	0.051083837
55	0xbe4dbaa3	-0.20090728
56	0xbe014a3a	-0.12625971
57	0x3df7b781	0.120955475
58	0xbd83e90c	-0.064409345
59	0xbd79eeeb	-0.061018866
60	0x3cc43650	0.02395168
61	0xbd6b5df4	-0.057462648
62	0x3d21d264	0.039507285
63	0x3e2d9aa1	0.16953517
64	0x3d89308c	0.06698713
65	0x3d87573a	0.06608434
66	0x3e0e45dc	0.13893837
67	0x3dc1292a	0.094316795
68	0x3d0aecf3	0.03391738
69	0x3d3681d5	0.04455741
70	0x3e04c19f	0.12964486
71	0xbbc42770	-0.0059861466
72	0xbd629d82	-0.055325992
73	0x3d5e2d6d	0.05424254
74	0x3d8becfa	0.06832309
75	0x3c6ef760	0.014585346
76	0x3dc6cc16	0.09706895
77	0x3d84c4e9	0.0648287
78	0xbc425e13	-0.011863249
79	0xbdca5d13	-0.09881034
80	0xbe0346a8	-0.12819922
81	0xbe045424	-0.12922722
82	0xbd25d20c	-0.04048352
83	0xbda9dad3	-0.082936905
84	0xbd20d2ff	-0.03926372
85	0xbd71d75f	-0.059043285
86	0x3d66bb06	0.056330703
87	0x3bd54840	0.006508857
88	0xbdb229a0	-0.086993456
89	0xbe316662	-0.17324212
90	0xbd804d94	-0.06264797
91	0x3d0ac0f2	0.033875413
92	0x3e165af5	0.14683135
93	0xbd7d0248	-0.061769754
94	0x3bd87a85	0.0066064023
95	0xbe080007	-0.1328126
96	0x3d915cd7	0.07097786
97	0xbd8ae690	-0.067822576
98	0x3cf6c5aa	0.03012355
99	0xbe4abfc3	-0.19799714
100	0x3e19073f	0.1494417
101	0x3dcd476e	0.1002339
102	0xbde83727	-0.113386445
103	0x3d7014ce	0.05861359
104	0xbdc8e1c9	-0.0980869
105	0xbc8b9621	-0.01703936
106	0xbd1d562f	-0.03841227
107	0x3d8ddc1a	0.06926747
108	0xbdfc87ec	-0.123306125
109	0x3cdf4b49	0.027257578
110	0x3d6804b1	0.0566451
111	0x3da506ec	0.08057961
112	0xbe806e70	-0.25084257
113	0xbd10c800	-0.035346985
114	0xbda268e2	-0.07930161
115	0xbd912b34	-0.070883185
116	0x3e1de39b	0.15418856
117	0xbd04c12f	-0.032410797
118	0x3d4b2270	0.04959339
119	0xbe6e68c3	-0.23282151
120	0xbd982795	-0.07429425
121	0x3d9e3aa8	0.077260315
122	0x3d7a26b7	0.061072078
123	0xba830027	-0.0009994552
124	0xbd88fb31	-0.06688536
125	0x3d02c3d0	0.031925023
126	0xbccd8941	-0.025089862
127	0x3d7d82e1	0.061892394
128	0x3de02998	0.109454334
129	0xba474ee0	-0.0007603001
130	0x3d21c82f	0.03949755
131	0xbd0f09b6	-0.03492137
132	0x3d455c5e	0.04818379
133	0xbc871709	-0.016490476
134	0x3d9d2d3d	0.07674644
135	0x3d917de3	0.07104089
136	0xbd85eaaa	-0.06538899
137	0xbcae9b5d	-0.021314317
138	0x3db35c90	0.08757889
139	0x3c8de888	0.017322794
140	0x3d8b30f9	0.0679645
141	0xbd8736b2	-0.06602229
142	0xbd4b51ca	-0.049638547
143	0xbd3c96fb	-0.046042424
144	0xbd53051e	-0.051518552
145	0xbc159cb2	-0.009131597
146	0x3c57d7f6	0.013174048
147	0x3d0e455a	0.034734108
148	0x3cce91e7	0.025216056
149	0xbde82c79	-0.113366075
150	0xbb8227b2	-0.003972017
151	0x3d87793e	0.06614922
152	0xbd59ec43	-0.053203832
153	0xbe37288d	-0.17886563
154	0xbc9b9520	-0.018992007
155	0x3d88ebd9	0.06685609
156	0x3d0f83e5	0.035037894
157	0xbd22d3e3	-0.039752852
158	0xbca726a9	-0.020404177
159	0xbd3c2a71	-0.045938913
160	0x3de37e86	0.11108117
161	0xbdc25b77	-0.09490102
162	0xbd3fe8fe	-0.046853058
163	0xbe2a73be	-0.16645715
164	0x3d9e0a13	0.07716765
165	0xbc9eb4ab	-0.019373259
166	0xbd75a127	-0.05996814
167	0xbc6e309c	-0.014537957
168	0xbe114eea	-0.1419026
169	0x3d65cccf	0.056103524
170	0xbd41bc49	-0.047298703
171	0x3d349a77	0.04409262
172	0xbde04444	-0.10950521
173	0x3d2b0505	0.041752834
174	0x3d8ae689	0.06782252
175	0x3de9b0a7	0.11410647
176	0xbe6cf89e	-0.23141715
177	0xbd002e00	-0.03129387
178	0xbd7c63d9	-0.06161866
179	0xbd19cc4c	-0.03754835
180	0x3e1e231a	0.15443078
181	0x3d5bd98d	0.05367427
182	0xbd9d2c28	-0.07674438
183	0xbde0870a	-0.10963257
184	0xbdd4a256	-0.103825256
185	0x3e50cf9d	0.20391698
186	0x3bfa9308	0.007646922
187	0xbdd60d31	-0.10451735
188	0xbcc76d30	-0.024344057
189	0x3cced155	0.025246302
190	0x3ca94a90	0.020665437
191	0x3cc021ae	0.02345356
192	0x3dfc2f0b	0.1231366
193	0xbd291be1	-0.041286353
194	0x3c937080	0.01799798
195	0x3c142702	0.009042503
196	0x3c8396e5	0.016063163
197	0x3cd6d4b4	0.026224472
198	0x3d88d35f	0.06680941
199	0xbcd662e8	-0.026170209
200	0xbdc24bf2	-0.09487142
201	0x3d83441b	0.064094745
202	0xbd1e76d5	-0.038687546
203	0xbd0ad483	-0.033894073
204	0x3d404402	0.046939857
205	0xbd6bd44c	-0.05757551
206	0x3d5576d3	0.052115273
207	0x3cfc1b20	0.030774653
208	0xbdff8f29	-0.124784775
209	0xbcf17e90	-0.029479295
210	0xbce7e630	-0.028308004
211	0xbd166831	-0.03672046
212	0x3dd39fb4	0.10333195
213	0xbd55ad0d	-0.052166987
214	0xbcfb4b5a	-0.030675579
215	0x3d19592b	0.037438553
216	0xbe482f3f	-0.19549273
217	0xbdec4347	-0.1153627
218	0xbcdc0881	-0.026859524
219	0x3d82ca5a	0.06386252
220	0x3dcf5e16	0.10125367
221	0x3d51c9c0	0.051217794
222	0x3d82c64e	0.0638548
223	0xbd18f42d	-0.03734224
224	0x3ddd201f	0.10797142
225	0xbd883697	-0.06651037
226	0xbc0e7b56	-0.008696398
227	0xb898d948	-7.2883966e-05
228	0x3dc1890c	0.09449968
229	0x3de78b1b	0.11305829
230	0xbdc19c54	-0.09453645
231	0x3dbc5fab	0.09197935
232	0xbddeb32c	-0.10874018
233	0xbcf2af6e	-0.029624667
234	0xbba8bd53	-0.0051495223
235	0x3da01c55	0.07817904
236	0xbd194cb8	-0.03742668
237	0x3dbcbf52	0.09216179
238	0x3b0e2821	0.00216914
239	0x3d77cb88	0.060496837
240	0xbe68e8f6	-0.22745118
241	0xbd5ad9e6	-0.05343046
242	0xbd970d70	-0.0737561
243	0xbc5d8adf	-0.013521879
244	0xbccf8490	-0.025331765
245	0x3ce76306	0.02824546
246	0x3c4cf43c	0.012509402
247	0xbe39d912	-0.18149212
248	0xbd20dd31	-0.039273445
249	0x3dfac98c	0.12245473
250	0xbd2a4e0e	-0.041578345
251	0x3c8f160a	0.017466564
252	0xbdfe18c8	-0.124070704
253	0xbdc7d991	-0.097582944
254	0xbd912dd8	-0.07088822
255	0x3d8b0e21	0.06789804

sequential_2/conv2d_3/Conv2D f4 [64, 3, 3, 64]
0	0x3d133efc	0.03594874
1	0xbd7511a5	-0.05983128
2	0x3d50775f	0.05089509
3	0xbd996a5a	-0.07490988
4	0x3b8aa273	0.0042307912
5	0xbd82f2b6	-0.0639395
6	0xbc4eddb8	-0.012626104
7	0x3d5e0938	0.05420801
8	0xbdfe680e	-0.124221906
9	0x3d898f47	0.06716781
10	0xbd7f81cf	-0.062379654
11	0xbd7938ff	-0.06084537
12	0xbca8af25	-0.020591328
13	0x3bd338ad	0.0064459653
14	0x3d0d83a4	0.03454937
15	0xbdde82d6	-0.10864799
16	0x3c8c68f6	0.017139893
17	0xbc3267df	-0.010889023
18	0xbd0d5e1f	-0.03451359
19	0xbd6031bd	-0.054734934
20	0x3dba79a7	0.091052346
21	0xbcdfebed	-0.027334178
22	0x3d19df30	0.037566364
23	0xbd77bbae	-0.06048172
24	0xbdab5226	-0.08365278
25	0xbde34aaa	-0.110982254
26	0xbda8e50b	-0.082468115
27	0xbc88b096	-0.016685765
28	0x3d064cda	0.032788135
29	0x3db4cb2d	0.08827815
30	0x3d38ffcf	0.045165833
31	0x3d666f14	0.056258276
32	0xbd92b81b	-0.071640216
33	0x3d6f55c1	0.05843139
34	0x3cddc664	0.02707214
35	0xbe074d8a	-0.13213173
36	0xbcf7666c	-0.030200206
37	0xbd14623c	-0.036226496
38	0xbbe204bc	-0.006897537
39	0xbe079169	-0.13239063
40	0xbd56c212	-0.052431174
41	0xbd1e59be	-0.038659804
42	0xbdaa3990	-0.083117604
43	0xbdbcd03b	-0.09219404
44	0x3d05759e	0.03258287
45	0xbdfbe2ed	-0.12299142
46	0x3d0812fe	0.033221237
47	0x3d1cda2e	0.03829401
48	0xbd7b728c	-0.061388537
49	0xbe165ded	-0.14684267
50	0xbd965d7c	-0.073420495
51	0xbced3773	-0.028957104
52	0xbd9b4cf4	-0.07583037
53	0xbd77f615	-0.060537416
54	0xbdf4392a	-0.11924966
55	0x3ccfa1a4	0.025345631
56	0xbe41d564	-0.18929058
57	0xbdac00f0	-0.08398616
58	0xbe0da0ca	-0.13830867
59	0xbd6f3326	-0.05839839
60	0xbd8453e3	-0.064613126
61	0xbd0a6a08	-0.033792526
62	0xbde67bd5	-0.11254088
63	0xbc076526	-0.008263862
64	0x3d60502e	0.054763965
65	0xbb5ec474	-0.0033991607
66	0x3c17c006	0.009262091
67	0xbdecb69e	-0.11558269
68	0xbbd68c5d	-0.0065474943
69	0xbd156ef6	-0.036482774
70	0xbdf91644	-0.1216245
71	0x3d5fba40	0.05462098
72	0xbc90ad52	-0.01766077
73	0x3d93f363	0.07224157
74	0xbdd7b7f5	-0.10533134
75	0x3d032034	0.032013133
76	0x3cbbf225	0.022942612
77	0x3bf2e83f	0.00741294
78	0x3e0c8da4	0.13725907
79	0xbd44cb6b	-0.048045557
80	0xbd7ba1b8	-0.061433524
81	0xbbe4ce9e	-0.0069826385
82	0xbdc6b53e	-0.09702538
83	0xbe033105	-0.12811668
84	0x3dfb6b1b	0.12276288
85	0xbce24853	-0.027622377
86	0xbd63bf49	-0.055602346
87	0xbdaf4da1	-0.085597284
88	0xbd9c0cee	-0.07619654
89	0xbde3c3bb	-0.11121317
90	0xbdab79cd	-0.08372841
91	0x3e00dada	0.12583485
92	0xbb26e30d	-0.0025464923
93	0x3d25b447	0.04045513
94	0x3d8b3cbb	0.06798693
95	0x3d7f24a8	0.062290817
96	0xbdb01758	-0.085982025
97	0x3d2820c1	0.04104686
98	0xb56316e0	-8.459738e-07
99	0xbe3f4aaf	-0.18680833
100	0xbdacd7a8	-0.08439571
101	0xbc1e169b	-0.009648944
102	0xbdb1961a	-0.08671208
103	0xbaf2f197	-0.0018535134
104	0xbc87fdc6	-0.0166005
105	0x3c526e06	0.012843614
106	0xbdc38881	-0.095475204
107	0xbd71246d	-0.05887263
108	0x3c5dec4f	0.01354511
109	0xbe113fef	-0.14184545
110	0xbded7081	-0.11593724
111	0x3d0fc92e	0.03510397
112	0xbdce12bf	-0.10062169
113	0xbe33d5d9	-0.17562045
114	0xbda3c6a2	-0.079968706
115	0x3b4cf857	0.0031275952
116	0x3d1646c3	0.036688577
117	0xbc0d43ec	-0.008622151
118	0xbdccc31f	-0.09998154
119	0xbe00e268	-0.12586367
120	0xbe023a5f	-0.1271758
121	0x3d5ebe67	0.0543808
122	0xbdac5f04	-0.0841656
123	0x3d585e27	0.052824166
124	0xbdabaadc	-0.08382198
125	0xbdfaf7a9	-0.12254269
126	0x3d923fcb	0.07141074
127	0xbe41d18e	-0.18927595
128	0x3db2dea6	0.08733873
129	0xbd0a991f	-0.033837434
130	0xbdc36ec0	-0.09542608
131	0xbd536a3b	-0.05161498
132	0xbda43bd2	-0.08019222
133	0xbd883359	-0.06650419
134	0xbdc7a7d7	-0.0974881
135	0x3d43dcde	0.047818057
136	0x3d9513ce	0.07279168
137	0xbc775fae	-0.015098495
138	0xbd40d9d8	-0.047082752
139	0xbd1cef74	-0.038314298
140	0xbd2d2d00	-0.042279243
141	0x3db75a1d	0.089527346
142	0x3d321edc	0.04348646
143	0x3dca847d	0.098885514
144	0xbd880353	-0.06641259
145	0x3d8caf40	0.06869364
146	0xbdfd21d7	-0.1235997
147	0xbd61e3f2	-0.055149026
148	0x3d9dba77	0.07701581
149	0x3bcef719	0.0063160774
150	0xbd9ce33c	-0.07660529
151	0x3cef430e	0.029206779
152	0xbd94a012	-0.072570935
153	0xbc20f39e	-0.009823708
154	0x3dd5e98e	0.10444938
155	0x3b06ab69	0.0020548946
156	0xbd01a5f3	-0.031652402
157	0x3c85465b	0.0162689
158	0x3dbfb138	0.09359974
159	0xbd50684b	-0.05088071
160	0xbbf4e671	-0.00747376
161	0x3d88e28b	0.06683835
162	0x3c5621e7	0.013069606
163	0x3cc4a138	0.024002656
164	0xbd6c84c6	-0.05774381
165	0x3c3ffd00	0.011718035
166	0xbc8a2e0c	-0.01686766
167	0x3e0149ad	0.12625761
168	0xbd096053	-0.033539128
169	0x3cc25284	0.023720987
170	0x3cffdcdf	0.03123325
171	0x3cc41a1b	0.02393823
172	0xbd540f3c	-0.05177234
173	0x3cd17027	0.025566174
174	0xbd4de8cd	-0.050270844
175	0xbcc6224d	-0.024186278
176	0xbd8e8056	-0.06958072
177	0xbd3d0cbb	-0.04615472
178	0xbd1f71e2	-0.038926966
179	0xbdaca3b0	-0.084296584
180	0x3da54a10	0.08070767
181	0x3d348b23	0.044078004
182	0x3ce46121	0.027878346
183	0xbd0cba2f	-0.034357246
184	0xbcc6b0e8	-0.024254277
185	0x3e27f9c6	0.16403875
186	0x3d0c5929	0.034264717
187	0x3d542e22	0.05180181
188	0xbcf4aabc	-0.029866569
189	0xbb9375a5	-0.0045001083
190	0x3d9822e7	0.07428532
191	0x3c913310	0.017724544
192	0xbceabe3a	-0.02865516
193	0xbd58e472	-0.052952237
194	0xbd979fa4	-0.07403496
195	0x3b02ea4a	0.0019976073
196	0x3b884949	0.004159127
197	0xbcf36c8b	-0.029714843
198	0xbd948e42	-0.07253696
199	0x3bd3a338	0.006458666
200	0xbda5f6c0	-0.081037045
201	0xbd34db80	-0.044154644
202	0xbceab46d	-0.028650487
203	0xbd734dd6	-0.059400402
204	0xbc8e33b2	-0.017358635
205	0x3c96bb4c	0.018399857
206	0x3caf78be	0.021419879
207	0xbdaa6fab	-0.0832208
208	0x3d12b445	0.03581645
209	0x3ba23653	0.0049503236
210	0xbd857a1b	-0.065174304
211	0xbdb43f9c	-0.08801195
212	0xbd033688	-0.032034427
213	0xbe12ac1b	-0.14323466
214	0xbc86cbde	-0.016454633
215	0xbd0b4d18	-0.03400907
216	0xbb05e5ff	-0.0020431278
217	0xbd928119	-0.0715353
218	0x3d46e230	0.048555553
219	0xbd1bc09c	-0.038025483
220	0xbd4204eb	-0.04736797
221	0x3c976e1d	0.018485123
222	0xbc9d6cb9	-0.019216882
223	0xbd1db19b	-0.038499456
224	0xbcff6e48	-0.031180516
225	0x3d1d226c	0.038362905
226	0x3bc97950	0.006148495
227	0xbdb045b1	-0.086070426
228	0xbcfecb27	-0.03110273
229	0xbdab43de	-0.08362554
230	0x3d367314	0.04454334
231	0x3dbc4347	0.0919252
232	0xbd86bbbb	-0.065787755
233	0xbe0752ec	-0.13215226
234	0xbdfd72a7	-0.12375384
235	0xbd8f627b	-0.070012055
236	0x3d485c9e	0.04891645
237	0xbe1eb2de	-0.1549792
238	0xbdd2b227	-0.10287886
239	0x3c948963	0.018131917
240	0x3bc8c576	0.006127055
241	0xbd49ab43	-0.049235594
242	0xbd8de477	-0.06928342
243	0x3cf0a7cb	0.029376885
244	0xbd36c4fa	-0.044621445
245	0xbd351e59	-0.044218395
246	0xbdda16a0	-0.106488466
247	0xbdcd1f28	-0.10015708
248	0xbe08e711	-0.13369395
249	0xbaa8cbcd	-0.001287812
250	0xbe04ddbe	-0.12975213
251	0xbc672683	-0.014108303
252	0xbd9fb96f	-0.077990405
253	0xbdcb917c	-0.09939858
254	0xbd8a108f	-0.067414396
255	0xbdcf88b5	-0.10133497

sequential_2/conv2d_4/Conv2D f4 [64, 3, 3, 64]
0	0xbc16c6a3	-0.009202632
1	0xbd011c2e	-0.031521015
2	0xbcf92bd0	-0.0304164
3	0xbbe36f4c	-0.006940758
4	0xbd7ff105	-0.062485714
5	0xbcab88ca	-0.02093925
6	0x3d2970ee	0.041367464
7	0xba2c12ea	-0.0006564098
8	0x3d62393b	0.05523036
9	0xbd8b3a25	-0.067981996
10	0x3c1d0baf	0.009585305
11	0xbca3d83a	-0.020000566
12	0xbd9266ac	-0.07148489
13	0xbc5f585f	-0.013631909
14	0x3d7c9ec3	0.061674844
15	0x3d6a5211	0.05720717
16	0x3d4a4cd0	0.04938966
17	0xbd10789e	-0.03527128
18	0x3d0b8dfe	0.03407096
19	0xbccf83db	-0.025331428
20	0xbd990adf	-0.074727766
21	0xbd690f76	-0.05689951
22	0xbc5107c7	-0.012758202
23	0x3d444d17	0.04792508
24	0x3d095ad2	0.03353388
25	0xbca76508	-0.020433918
26	0xbbaf25c5	-0.0053450787
27	0x3ce9bd2b	0.028532585
28	0x3d245229	0.040117417
29	0xbd7a5637	-0.061117377
30	0xbd8f2518	-0.06989497
31	0xbd098314	-0.03357227
32	0x3d804ebf	0.062650196
33	0xbd783173	-0.060594033
34	0xbd933a56	-0.07188861
35	0xbd20a42e	-0.039219074
36	0x3d444241	0.047914747
37	0xbcdf8ab7	-0.027287824
38	0x3d45fd2f	0.048337158
39	0xbd89a237	-0.06720393
40	0xbd61deed	-0.05514424
41	0xbc201c02	-0.009772303
42	0x3c889a43	0.01667512
43	0xbd9d1994	-0.07670894
44	0xbd9cdcab	-0.076592766
45	0xbd9c48aa	-0.07631047
46	0x3ca82e29	0.020529823
47	0xbd84ce42	-0.06484653
48	0xbdab70c6	-0.08371119
49	0xbd99dd35	-0.07512895
50	0xbd6e9c56	-0.058254562
51	0x3bef96a8	0.007311661
52	0xbde6e442	-0.112740055
53	0x3c3a2cb3	0.011363196
54	0xbd4d202d	-0.050079513
55	0xbc237906	-0.009977585
56	0x3c476e76	0.012172332
57	0xbd9be7eb	-0.07612594
58	0x3d201b7f	0.039088722
59	0xbd1d7956	-0.038445793
60	0x3d1bb4e3	0.038014304
61	0xbdc79072	-0.09744348
62	0xbceff8f2	-0.029293511
63	0xbd9999ef	-0.07500064
64	0x3d18e076	0.037323438
65	0xbd67f107	-0.056626346
66	0xbc99061e	-0.018679675
67	0xbda329bb	-0.07966944
68	0xbd0313f9	-0.03200147
69	0x3d178253	0.03698952
70	0xbb9fd580	-0.004877746
71	0xbdbc0bb5	-0.091819204
72	0xbd4270d4	-0.047470883
73	0xbd1e5863	-0.03865851
74	0xbd7c35b6	-0.06157466
75	0x3cbfc20d	0.02340796
76	0x3d0e8c92	0.034802027
77	0xbd16d543	-0.036824476
78	0xbca60fdf	-0.02027124
79	0x3d7011bd	0.058610667
80	0x3c8ed541	0.017435672
81	0xbb555aca	-0.0032555335
82	0x3cdb8745	0.0267979
83	0xbd29baa1	-0.04143775
84	0x3d7c0f91	0.061538283
85	0xbb4b5323	-0.0031024895
86	0xbd454e94	-0.04817064
87	0xbd3dc493	-0.046330046
88	0xbd900795	-0.07032696
89	0x3c87cf10	0.016578227
90	0x3a98db4d	0.0011662036
91	0xba775dc9	-0.00094362773
92	0xbb51eb8d	-0.0032031268
93	0xbcd88a5d	-0.026433164
94	0x3ca9a952	0.020710621
95	0x3c6e7bf2	0.014555918
96	0xbd836e69	-0.064175434
97	0x3cf387d0	0.029727846
98	0x3d194632	0.03742046
99	0xbd6f6953	-0.058450054
100	0xbc071510	-0.008244768
101	0xbc247e44	-0.01003987
102	0x3d03f0e4	0.032212153
103	0xbd8db046	-0.06918387
104	0xbd0d85e0	-0.0345515
105	0xbb1a234e	-0.0023519578
106	0xbd4c1340	-0.049823046
107	0xbd45ba89	-0.048273597
108	0xbc41a84c	-0.01181991
109	0xbd864577	-0.06556218
110	0x3d421545	0.047383565
111	0x3d9056ef	0.07047831
112	0x3d0f7f99	0.035033796
113	0x3d1022ef	0.035189565
114	0x3c6c1c41	0.014411033
115	0xbc191a3e	-0.0093446355
116	0xbdc8b9b6	-0.098010466
117	0x3d92592f	0.07145917
118	0x3c84dcbc	0.016218536
119	0xbd374cc1	-0.044750933
120	0xba074b95	-0.0005161104
121	0x3c7b1db3	0.015326905
122	0x3be11c52	0.006869831
123	0xbc866f24	-0.016410418
124	0xbd182f32	-0.037154384
125	0x3d0fd34e	0.035113625
126	0x3c684878	0.014177434
127	0x3b3a2db9	0.00284086
128	0xbce49947	-0.02790512
129	0xbd09ee5b	-0.03367458
130	0xbd4766a4	-0.04868187
131	0xbacd0797	-0.0015642521
132	0x3c998948	0.018742219
133	0xbd8575cc	-0.065166086
134	0x3cc7dac0	0.0243963
135	0xbd8d3aef	-0.06896006
136	0x3c553fae	0.013015671
137	0xbdafc081	-0.08581639
138	0xbc51051b	-0.012757565
139	0x3caa1402	0.020761494
140	0xbb9e5398	-0.0048317425
141	0xbd7b995b	-0.061425548
142	0x3d2d89ab	0.04236762
143	0xbc845bcc	-0.016157053
144	0x3c9a1a2f	0.018811313
145	0x3d872033	0.065979384
146	0xbd3abd58	-0.04559073
147	0xbd597a4a	-0.05309514
148	0xbd4cb2df	-0.049975272
149	0xbcd1c151	-0.025604876
150	0xbd47affd	-0.04875182
151	0xbd83fc62	-0.064446226
152	0x3d40a3ef	0.04703134
153	0x394fcbb3	0.00019816942
154	0x3c68f554	0.014218647
155	0x3b27b895	0.0025592197
156	0xbcb4c98b	-0.02206876
157	0x3c1d6e24	0.009608779
158	0xbd9950a4	-0.07486084
159	0xbd588f47	-0.052871015
160	0xbcaa70e1	-0.020805778
161	0xbcc8749a	-0.024469662
162	0xbdab5464	-0.083657056
163	0x3cfcba74	0.030850627
164	0xbd5f8943	-0.054574262
165	0xbd0967f7	-0.033546414
166	0xbd400b35	-0.046885688
167	0xbdb4698b	-0.08809193
168	0x3d0a9e90	0.033842623
169	0x3d73b963	0.05950297
170	0x3c246660	0.010034174
171	0xbd891c1d	-0.06694815
172	0xbd4afee5	-0.049559493
173	0xbd0adc03	-0.033901226
174	0x3ce13fa4	0.027496167
175	0x3d5bc36f	0.053653177
176	0xbd25b810	-0.04045874
177	0xbb9bd9dc	-0.0047561955
178	0x3d24ac38	0.040203303
179	0x3d51649a	0.05112133
180	0xbd62451e	-0.055241697
181	0xbd9395e0	-0.07206321
182	0x3acb3e52	0.0015506244
183	0xbceadb31	-0.028668972
184	0xbd2e1565	-0.042500872
185	0xbc99f034	-0.018791296
186	0xbd7864a6	-0.06064286
187	0xbd28c146	-0.041199945
188	0xbcbe1fca	-0.023208518
189	0x3bfd0c84	0.0077224392
190	0x3d83f583	0.06443312
191	0x3cea376c	0.02859088
192	0x3d05e6ed	0.03269093
193	0xbc40d111	-0.011768595
194	0x3bea5288	0.007150952
195	0xbbdd6d54	-0.0067574177
196	0xbd9016ca	-0.07035597
197	0xbc545c14	-0.012961406
198	0xbd20573d	-0.039145697
199	0x3d07d257	0.03315958
200	0xbc2db106	-0.010601288
201	0x3d2c1601	0.042013172
202	0xbd320b84	-0.043468013
203	0xbccd2b50	-0.025045067
204	0xbd9ad8ed	-0.075609066
205	0xbd892047	-0.066956095
206	0xbd505117	-0.050858583
207	0x3d4143d0	0.04718381
208	0x3cac63d2	0.021043692
209	0xbbea6018	-0.0071525685
210	0xbd48a5f2	-0.048986383
211	0xbd0e50e0	-0.034745097
212	0x3cb73b42	0.022367124
213	0xbd9efc07	-0.07762914
214	0x3c2dc2ea	0.010605553
215	0xbd755dd5	-0.05990394
216	0xbd939c99	-0.07207603
217	0xbd3901ba	-0.045167662
218	0xbcb8afdb	-0.022544792
219	0xbc2f5689	-0.010701784
220	0x3cc7e167	0.024399472
221	0xbcfbc4e2	-0.03073353
222	0xbd783f97	-0.06060752
223	0xbda8dcac	-0.08245215
224	0x3cb08489	0.021547573
225	0xbbd7c149	-0.0065843207
226	0xbd827cbe	-0.06371449
227	0xbd1b5ea3	-0.03793205
228	0xbdc1e78d	-0.09467993
229	0xbd888d1a	-0.06667538
230	0xbda66197	-0.081240825
231	0xbc6059af	-0.013693257
232	0xbcc0cb38	-0.023534402
233	0xbca98ead	-0.020697916
234	0xbc7e6f3f	-0.015529453
235	0x3d423fda	0.047424175
236	0xbbabf503	-0.0052477135
237	0x3d2e1863	0.042503726
238	0x3b2c0105	0.0026245725
239	0xbc8ad259	-0.016946005
240	0xbd999ebe	-0.07500981
241	0xbd125a56	-0.035730682
242	0x3cf78b8b	0.030217906
243	0x3d84413a	0.064577535
244	0xbd172898	-0.036903948
245	0x3cd5da82	0.02610517
246	0xbd85e372	-0.065375224
247	0xbd437a61	-0.04772413
248	0x3d2308b2	0.039803214
249	0x3d336e74	0.04380651
250	0xbd1682d0	-0.036745846
251	0xbcbb07a1	-0.022830786
252	0x3c578adf	0.013155668
253	0xbc8c97d5	-0.017162243
254	0x3c7330b9	0.014843159
255	0xbd4c0075	-0.049805123
